Python_Test_Scripts/cifar_net.pth (torch_old, 249462 bytes, 10 tensors)

conv1.weight f4 [6, 3, 5, 5]
00000000: a127 32be c285 963d 245d 32bd f7a0 4fbe
00000010: 2420 05be b090 473b 6c50 35be c8d9 acbe
00000020: ed98 9fbe ba37 67be fd2f 15be ca96 8ebe
00000030: b646 9dbe 68ee 43be d6e5 69bd 0f18 f9bc
00000040: b1fb ffbd 328e 543e a5fb 893e 6443 693e
00000050: b16a af3d 0c90 a33e 3107 753e b392 c13e
00000060: 0bb9 4e3e 4301 adbd c563 203e e592 6f3c
00000070: 038c 92be 0942 7cbe 8796 cf3d dbee 893b
00000080: 47d3 68be 1c1b 9fbe ddf2 32be 2325 a1bd
00000090: 2e96 c6be ec40 acbe 0271 28be 7642 2dbd
000000a0: 0b64 10be 06f9 43be 7d76 2f3d 91ff e83d
000000b0: 733f cf3d cb51 553d 0707 d6bd 9750 cc3c
000000c0: dacb 433e 48f1 ca3d 7d88 d83d d23f 7d3e
000000d0: 7bf9 553e 006c d9bd 483e 70bd 59ff 513e
000000e0: 0e41 263e e2b1 29be af49 10be 3ed6 c13d
000000f0: cef3 aa3d fc12 06be e0e0 dfbd 2d02 133e
00000100: ea0e fe3d 3aea e8bd 90da 4dbd 33e0 ff3d
00000110: 52ee 6e3e e882 503e 80ce 993c 0230 3c3d
00000120: 7b1b 923e 2751 123e 3f6a 0c3e cb80 d23e
00000130: 36e8 4b3f 16dd 323f 5a6b d13e f248 3f3e
00000140: c4ff 8ebe 33a5 10be ae6c 113e ec3f fa3d
00000150: 07a3 513e 6c3c d1be 7129 1dbf 75f4 05bf
00000160: 773e 8ebe 405d fabc 233b 873d e500 79bc
00000170: 8508 35bd beca 0fbe e9d6 62bd f8be 84be
00000180: a00a dfbd 89f2 16be a0dc 9abe 74ba aabe
00000190: 28df 7f3e b284 093f ac9d 0b3f 23d1 5f3e
000001a0: 3c24 2abd bff2 54be d2aa 38be 1a6c 32be
000001b0: 7788 9bbb 7e49 03be 270b 92be 4fdd 0abf
000001c0: 4da1 03bf 9fe2 63be f365 b5bc eed8 943e
000001d0: f618 b93e 9e2b 283e 91eb c83d 9d4f 82bd
000001e0: 12a3 7dbd 3f75 3bbd 5a53 a13b ad4d bc3c
000001f0: e6bc adbe 4767 95ba afc6 bc3e c650 3c3e
00000200: 2993 953d 858b 66bd 0c93 5ebe dec7 48be
00000210: b700 4dbe e87c 20be a3be 3ebe bcdd 84bd
00000220: 8699 c1be f1f4 c8be f701 89be 10de 05be
00000230: ff64 de3e 4001 e93e 3259 493e ca7b 323e
00000240: 9368 7e3e e96f 203e 21d5 fb3d 5b41 873e
00000250: bca6 1d3e 72c0 6bbc 1168 10be e89a 643d
00000260: ae35 023f f8a8 adbe fc6d 9bbe 9d18 5ebd
00000270: e908 8b3e 015a 7c3d 594a 2fbf 8d0d 3e3d
00000280: 2965 debe a6f8 bf3d f79f 1fbf 4a12 50bf
00000290: 64d9 073f 8b66 c8be feea f03c 9d71 cebe
000002a0: d6c7 b1bd b093 9d3e d271 b53d 5fa3 04bd
000002b0: beb4 823e 264f 843d 2829 57be 5b3e e7bd
000002c0: 755f 373e 33d1 cf3e c435 94be c555 5abe
000002d0: 8fc7 8b3d 3cba 113f c566 e03d d2fe f3be
000002e0: afe3 593d 8894 a73d a1af d93e 7602 0dbe
000002f0: 520e 0bbf dc32 1e3f e663 a6bd 0315 5c3e
00000300: 560a 0fbe 8af2 a13d 3432 cc3e a6c7 b23e
00000310: 2085 653e 8030 263e 9b5c 3f3e 3570 39be
00000320: 2076 b2be 0ed4 3abe d9f8 9d3e c2f7 01be
00000330: f712 48be b656 25be d9c1 a93e 99b8 3b3d
00000340: 786d bbbe fcb0 7b3e 0270 82be 45fd 343e
00000350: f098 17be 80c0 d6be 0318 003f 93d9 23be
00000360: 2040 4d3d ce4e 3cbe deb9 39bc d29a 993e
00000370: aade 953d 66ba 9ebd 6bd4 ca3d 4362 2a3d
00000380: a374 66be 2ead 1fbd 2b09 6fbd fb75 e93b
00000390: f63b 2fbd 111e 5e3e 0a94 d73d aed6 a73e
000003a0: 096c 42bd e1aa bdbe b03f 963d 54b1 223e
000003b0: d566 b63e 78b5 693d 62c3 07bf 7364 58bd
000003c0: c920 193d cdc2 af3e 14f9 b83d 6f06 d5be
000003d0: 65cd ee3d 5f7a df3c 9a1f a43d ef1e f63c
000003e0: 6c5a 67be e473 813d 4841 50bd e5ad fb3c
000003f0: 80eb c4bd 23a4 90be 826c f63d d9b6 573e
-0.1739793 0.07349731 -0.043545857 -0.20276247 -0.13000542 0.003045123 -0.1770646 -0.33759904
-0.3117136 -0.22579852 -0.14569087 -0.27849418 -0.3071801 -0.19133914 -0.057103954 -0.03040698
-0.12499178 0.20757368 0.26949802 0.22779614 0.08565272 0.31945837 0.23928525 0.37807235
0.20187776 -0.08447506 0.15663059 0.014622425 -0.28622445 -0.24634565 0.10136133 0.004209382
-0.22736846 -0.3107537 -0.17475457 -0.078684114 -0.38786453 -0.3364328 -0.16449359 -0.04229971
-0.14100663 -0.19137964 0.04283761 0.113768704 0.10119524 0.052079957 -0.10450559 0.024940772
0.19120732 0.09909302 0.10572908 0.24731377 0.2089595 -0.106163025 -0.058653146 0.20507564
0.16235754 -0.16571763 -0.14090608 0.094646916 0.08347283 -0.1309318 -0.109315634 0.14356299
0.124051884 -0.113728 -0.050257266 0.124939345 0.233331 0.20362437 0.018775225 0.04594422
0.2853659 0.1428877 0.13712405 0.41113886 0.796512 0.698686 0.40902215 0.1868017
-0.2792951 -0.14125519 0.14201614 0.122192234 0.20472346 -0.4086641 -0.6139136 -0.52326137
-0.27782032 -0.030562043 0.06603076 -0.015197967 -0.044197578 -0.14042184 -0.055380736 -0.25926948
-0.108906984 -0.14740957 -0.3024645 -0.33345377 0.24987471 0.537181 0.54537463 0.21857123
-0.041538462 -0.20795725 -0.18033913 -0.1742405 -0.0047464925 -0.12821004 -0.28524134 -0.5424394
-0.51418 -0.22254418 -0.02214334 0.29071754 0.36151856 0.16422889 0.09810556 -0.06362841
-0.061923094 -0.04576611 0.0049232664 0.022986257 -0.3393318 -0.0011398577 0.36870334 0.18390188
0.07303459 -0.0562854 -0.21735781 -0.19607493 -0.20019804 -0.15672648 -0.1862741 -0.06487605
-0.37812442 -0.39249375 -0.26759312 -0.13072991 0.4343643 0.45508766 0.19662932 0.17430034
0.2484458 0.1566769 0.122965105 0.2641705 0.15395635 -0.014389144 -0.14102198 0.055811793
0.5086316 -0.33917975 -0.3035735 -0.05422269 0.27155235 0.061609272 -0.6847282 0.04639964
-0.43436554 0.09373598 -0.6235346 -0.81277907 0.53066087 -0.39140734 0.029408928 -0.40321055
-0.08680694 0.3077674 0.088596 -0.032382365 0.2552852 0.06460409 -0.21011794 -0.1129119
0.17907508 0.40589294 -0.2894727 -0.21321781 0.06825172 0.56924796 0.10957102 -0.4765535
0.05319565 0.08182627 0.42516807 -0.1377047 -0.54318726 0.61796355 -0.08124523 0.2149239
-0.13968787 0.07907589 0.39882052 0.34917945 0.22414064 0.16229439 0.1868767 -0.1810921
-0.34855747 -0.18244955 0.30853918 -0.12692168 -0.19538485 -0.16146359 0.33155707 0.045830343
-0.36606956 0.24579233 -0.2547608 0.1767474 -0.14804435 -0.4194374 0.5003664 -0.16000967
0.050109982 -0.18389437 -0.011335818 0.3000093 0.073178604 -0.077503964 0.09903797 0.041597616
-0.22505431 -0.038983516 -0.058358353 0.00712466 -0.042781793 0.21691157 0.10526283 0.32780975
-0.04746631 -0.37044433 0.07336366 0.15887958 0.3562533 0.057057828 -0.53032506 -0.05283017
0.037384782 0.3432831 0.09031883 -0.4160647 0.1166027 0.02728003 0.0801384 0.030044047
-0.22593087 0.063209325 -0.050843507 0.030722568 -0.096152306 -0.28250226 0.12032415 0.21065845

conv1.bias f4 [6]
00000000: 8e08 77be 8ddf 04bf d014 ce3c 3a97 afbe
00000010: 6873 e9be 83f4 0d3f
-0.24124357 -0.5190361 0.025156409 -0.34295064 -0.4559586 0.5545122

conv2.weight f4 [16, 6, 5, 5]
00000000: 1325 093e db44 1a3d cc70 03bd 27de 9bbd
00000010: 56a0 51bd 33f3 0f3c 7fd3 2ebe d27a 8dbe
00000020: c371 55be 4945 dfbd 78c2 f4bc 60c9 67be
00000030: f3ed 58be 23a3 2ebe e69f 13be 73b0 4dbd
00000040: 5dd4 27be 9cee 32be 6621 20be 3d1e 39bd
00000050: eea6 083e 7dd2 313d 2040 99bd bff5 04bc
00000060: 00d5 8ebd 5a97 0bbe beda a7bd 3443 c6bd
00000070: 2e21 a23d e2b2 b63d 5fe9 c2bd 2b38 31be
00000080: 4ecc 3ebd 7187 3abd d352 98bc ce75 03bb
00000090: dda3 23be 183c d3bd a463 08bd 9024 b7bd
000000a0: 44f4 cdbd b40a e7bd ff4d 2fbe 1b95 e5bd
000000b0: 5c24 d6bd a3fc 49bd 12b4 12be 2446 13be
000000c0: 2e81 29be 2413 2bbd 8a20 d53d 573c 14bd
000000d0: e403 5ebe 881e d1bd addf f2b9 09f2 5cbc
000000e0: 8466 41be 489a 73be 9ff9 80be 6a6a 21bd
000000f0: d218 1abd 1ff0 babd e123 69be 21a6 38be
00000100: 5238 a6bd c154 0c3e 8b6c f0bc c8cd 4bbe
00000110: 5695 b9bd d71d a5bd 8efb 1c3e 15b1 f73c
00000120: 2c42 b9bc cdfc 07bd 1099 41bd 1582 8abd
00000130: 43bc a13d 6774 c83e 28db a73e f9f5 5e3e
00000140: e648 9dbd d08b d7bd e598 013e 0369 123e
00000150: a008 a73e d920 adbd df0f 6bbd 4939 f33c
00000160: 058b fe3c f992 503e 8d0e 6b3c 63fe 6c3d
00000170: db2b 963d 34b3 5f3a f1f9 203e ba12 1bbd
00000180: e163 513d 587f 2d3e 5f8b 253e 0ae1 653e
00000190: 01a0 75bb aca3 2d3c c215 14be 5252 ee3c
000001a0: 2b23 843c e61d bb3d 7a61 b23c 8eae 39bd
000001b0: 05c3 5dbb bc38 c7bd c471 353d 6366 3ebd
000001c0: af45 0bbd 2b49 d6bc 12a4 66bd 9583 bc3d
000001d0: def9 91bd c050 1abd 86a6 04be 8e03 033d
000001e0: c341 20bd 0ec8 acbd 4784 3cbe 19e1 b0bd
000001f0: f6e7 923c 3043 1dbd c921 0fbe 7f80 43bd
00000200: ffb3 03bc 5d03 8cbd 749d efbd f649 97bd
00000210: a633 a03c 5e82 b6bc 63d5 9ebd 604f a43b
00000220: a3bd 1e3d c870 043e 94f9 063d 3ab9 f6bd
00000230: 8297 71bd 86ed fd3c 0a0c 053e 8adb 763d
00000240: 2c23 d0bd 0e0a 5f3d 2e9f 7dbd dab0 1a3e
00000250: e3a8 9c3c bddb 16bd aabe 8d3d f606 9c3c
00000260: d997 80bc d490 5dbd 082e c2bd 7dde 933c
00000270: b7d1 7b3e d135 813e f55f 7f3e dd8d 923e
00000280: 6efb 39be 41e5 07be 96b6 a2bd e539 e9bb
00000290: 366d 46bb b3eb 05be 3b17 edbd be7f 31bc
000002a0: 4951 74bd a4f2 febd 9ed7 d1bd 3834 79be
000002b0: 5ad4 d7bd 7828 9ebd 261b c1bd 3b2e 503d
000002c0: 5706 663d 494c b43d 0d42 bd3d 9771 5b3e
000002d0: 1264 893d b039 be3d e6d2 873d 3c7a 1b3e
000002e0: b18d dc3d 3fa5 183d efc0 bf3d a24d 00bb
000002f0: c3d7 333d aa74 763d 7253 203c 4b1a 9339
00000300: 26d3 31bd 39b1 313b 87ed 29bd 8ad5 86bd
00000310: b62e 89b9 55de cdbd 13b9 4ebd db1c d63c
00000320: 3d35 61be a6a3 12be 6b01 d5bd 9afc 1abd
00000330: 3d71 a0bd 9fc1 0fbe 5b10 e2bd a7c1 9fbd
00000340: 119f 7abc e5a6 493d c7aa e1bd fc8c 1dbe
00000350: 5bb2 8cbd 34a9 e93a 5d9d 18be 89a4 c0bd
00000360: 73c4 01be 3a1e 07be 5202 82bd 875e 92bd
00000370: 7fc5 d3bd fa67 95bd 77f4 073c a97d a23c
00000380: 8ba7 1a3d defd db3e 7b6a 823c 5738 c1bc
00000390: 1ff6 ccbd bb45 2dbe 97a2 d53d 4e7d 203e
000003a0: e8de 333e eecd fc3c a612 d5bd a841 b5bd
000003b0: c0b3 f2bd d7bb 603d 8ac7 003e 0f63 323e
000003c0: 165a 07be d885 4abd 1ca7 df3b e028 7d3d
000003d0: 535a e53d 0491 6abd b0b8 a83c 97ed 443d
000003e0: c3eb 983d 6c13 db3d 8ad5 3fbe fc5e fcbd
000003f0: 113e 29be 78cd 4cbe 3827 17be de70 5c3d
0.13393049 0.037663322 -0.032089993 -0.076107316 -0.0511783 0.008786011 -0.17072867 -0.27632767
-0.20844178 -0.10901887 -0.029877886 -0.22635412 -0.2118452 -0.17054419 -0.14416465 -0.050217103
-0.16389604 -0.17473835 -0.1563774 -0.045194853 0.13344929 0.043413628 -0.07482934 -0.008115231
-0.0697422 -0.13631955 -0.08196019 -0.09680787 0.07916485 0.08920838 -0.09517168 -0.17306583
-0.04658156 -0.045539323 -0.018594181 -0.002005923 -0.15980478 -0.10314196 -0.03329815 -0.089425206
-0.100563556 -0.11281338 -0.17119597 -0.1121008 -0.10456154 -0.0493132 -0.14326504 -0.14382225
-0.16553184 -0.0417663 0.10406597 -0.036190357 -0.21681172 -0.102109015 -0.00046324488 -0.01348544
-0.18886763 -0.23789322 -0.25190446 -0.039408125 -0.037621327 -0.09127831 -0.22767593 -0.18032123
-0.08116211 0.13704206 -0.029348632 -0.19902718 -0.09061687 -0.08062332 0.15330335 0.030235806
-0.022614561 -0.033200074 -0.047265112 -0.067630924 0.07897236 0.39151308 0.3278439 0.21773519
-0.0767992 -0.10524714 0.12655981 0.14297871 0.32623768 -0.08453531 -0.057388183 0.029690402
0.031072149 0.20368566 0.014346731 0.05785979 0.073325835 0.0008533478 0.15720345 -0.037859656
0.051120643 0.16943109 0.16166447 0.22449127 -0.0037479403 0.010598104 -0.14461425 0.029091988
0.01613005 0.09136562 0.021774996 -0.045332484 -0.0033838165 -0.09727618 0.04429795 -0.046484362
-0.034002002 -0.026157936 -0.056308813 0.09204785 -0.071277365 -0.037674665 -0.12954149 0.031985812
-0.039125215 -0.08436595 -0.18409835 -0.08636684 0.017932873 -0.038394153 -0.13977732 -0.047729965
-0.00803852 -0.06836579 -0.11699954 -0.07387154 0.019555878 -0.02227896 -0.07755544 0.005014345
0.03875507 0.12933648 0.03295286 -0.12047048 -0.05898238 0.030997049 0.12992874 0.060267963
-0.101629585 0.05445295 -0.061919384 0.15106526 0.0191235 -0.036830653 0.06921132 0.019046288
-0.015697407 -0.054093197 -0.09481436 0.018050427 0.24591719 0.2523637 0.24938948 0.28623858
-0.18162319 -0.13271047 -0.07944982 -0.0071174973 -0.0030277497 -0.13078193 -0.115766965 -0.010833679
-0.059647832 -0.12448624 -0.10246204 -0.24336326 -0.1053855 -0.077225626 -0.09429006 0.05082534
0.05615839 0.08803613 0.09241114 0.2143005 0.0670854 0.09288347 0.066320226 0.15183347
0.10769213 0.037266966 0.09362971 -0.0019577523 0.04390694 0.060169853 0.00978552 0.00028057615
-0.043414257 0.002711369 -0.04148629 -0.06583698 -0.0002616548 -0.10052172 -0.05046947 0.026136806
-0.21992965 -0.1432024 -0.10400661 -0.037838556 -0.078340985 -0.14038704 -0.11038276 -0.07800608
-0.015296713 0.04923143 -0.11018901 -0.15385813 -0.06869956 0.0017826916 -0.1490378 -0.094063826
-0.12672596 -0.13195124 -0.06348099 -0.07146936 -0.10340404 -0.072952226 0.008298031 0.01983531
0.037757438 0.42967123 0.015919914 -0.023586435 -0.100078814 -0.16921131 0.10431402 0.156728
0.175655 0.030859914 -0.104039475 -0.088504136 -0.11850691 0.054866638 0.12576118 0.174206
-0.13217959 -0.04944405 0.006825341 0.06180656 0.111988686 -0.057267204 0.020595878 0.048078146
0.07466843 0.10697064 -0.18733802 -0.12322804 -0.16527583 -0.20000255 -0.14761055 0.053818576

conv2.bias f4 [16]
00000000: d3bd d93e 6c0d 04bf bc72 543e b729 223e
00000010: 36ce 97bd 36fc 69be b7de 7a3f 63a0 f83e
00000020: 93e7 a93f 472c d2bd 8700 2cbf 2f01 d4be
00000030: e441 593f f3b1 d2be fb99 dfbc 1e4b ca3e
0.42527637 -0.5158298 0.20746893 0.15836225 -0.074123785 -0.22850117 0.97996086 0.48559865
1.3273796 -0.102623515 -0.67188305 -0.41407153 0.84866166 -0.4115139 -0.027295103 0.39510435

fc1.weight f4 [120, 400]
00000000: fc45 6fbd a04f 7ebd b169 6bbd 7b52 363b
00000010: 52e6 233a c4f4 fc3c 0aa0 073c ab99 29bd
00000020: 4068 a8bc 1f1f 26bd 37ab 8e3c 5444 21bd
00000030: 962b 93bc 0301 88bd b0c9 5bbd 8c22 ee3c
00000040: e8f0 97bc bf31 8abd 14bd 15bd f390 9cbd
00000050: 1766 72bc 51fc e6bd 3b33 21bd df5c 9bbc
00000060: 8ac5 debc 67ef 6b3d cf7c 733c b75e a0bc
00000070: 79c5 b83b 8065 d9bc dbb1 ca3d 836a f1bc
00000080: e399 0fbc b8e1 a13b 1264 503d 833c be3d
00000090: 7d71 d23a 054c 933a 9947 533c 7998 b03c
000000a0: 5437 313d 1583 91bc 2cf4 7abd 7ef2 26bd
000000b0: 5d0e 023d 5249 143e 6ead c43c e1e8 aebd
000000c0: c4dd 4cba cdf1 023d f56f d93c 9d30 983c
000000d0: e5a4 8f3d 670c 6f3c bde2 3bbc 451c 573c
000000e0: 200d a63d 6750 2b3d 7799 7d3d 8e2e 913d
000000f0: 608a a03c 2290 843d f06d e0bb f447 073d
00000100: 023a 5f3d a8c2 5a3d 33b6 613c 2f9c b6bc
00000110: e70e 49bc 5ad7 1e3d 080b 1a3d c591 f63d
00000120: cd79 203c 8858 193c 26bd b63d 4c68 803c
00000130: 45f8 17bd aae7 f2bc 55e8 893c 99ab 6b3b
00000140: cc31 4b3d 8b52 d13c 2aeb 86bc be9b 973c
00000150: e868 283d 9820 6b3d f5db 123d 6e4b e63c
00000160: 6eca b93c 7ac6 0e3d db27 c93c a038 503d
00000170: 5574 8c3d 6f44 073d 9132 423d d3bb 633d
00000180: 9d4b 3fbc 5176 06bd 574c bfbc fb18 1bbd
00000190: 9804 ffbd aa7b f3bc 1d64 f4bd 0623 46bd
000001a0: eb91 cc3c 732d 9cbd 45e4 20be 883a d3bb
000001b0: 7438 983d 8289 313c c2ee 3cbd 5e21 2dbd
000001c0: a759 54bd ca33 3f3c db9e f4bb b046 ff3d
000001d0: aa3e 943b 42a5 a23d 7953 013e 3540 1e3d
000001e0: edad 04bd bc25 1b3d 66ea 3a3d 4535 f13d
000001f0: 0b25 d2bd 9e90 cbbc 5256 8dbd 80a4 edbd
00000200: 7c11 46be cd0b 66be d794 bfbc 3d0f 3f3d
00000210: a002 32ba 8f13 98bc 904e 1dbe a7c5 a7bd
00000220: ea22 413d 2ed4 a43d 086a dbbc 83de 08be
00000230: cc07 17bd 6e4b bc3d 367c ca3d 9a31 e9bb
00000240: 0ab1 213b cb03 fabd 6839 5bbd ce1e 993d
00000250: f2c8 843d b546 9a3d 7031 77bd dbf1 17bd
00000260: d5c3 30bd d406 133d e875 703c dc40 bdbd
00000270: 83ec f1bb 4cd3 9b3d 1eee 8b3d 52cc 2c3d
00000280: 173b 17be bea2 52bb 8dbd a13d 5682 a83c
00000290: 0df7 e73b f7ad b5bc 6720 d33c d713 723d
000002a0: 4657 223d 2f78 a4bc 3d59 b7b9 6c8a fb3d
000002b0: ff50 8f3d 835d 04bd bf9d a5bd 5fb5 fcbd
000002c0: 8b83 99ba a423 3f3d 6295 a33d 6e2d 303d
000002d0: fc78 0abd a58c 803c a3c7 ef3c 1207 053d
000002e0: 631d e53c 60cb ba3d 7b85 333c 3291 3f3d
000002f0: 43f5 3a3d 9af9 c7bc 1418 fd3b 54c2 54bd
00000300: b37e 2a3c 6de8 4abc 0d39 003d 375b ca3d
00000310: 736c 4cbd e5a0 25bd 9d52 bcbc e1d0 0039
00000320: d7ef 9ebb edf2 793d e18f 123e 196b 893d
00000330: ebec 4bbb 3bbb 403d 9376 703d 70d8 2c3d
00000340: 2787 b13d b6c7 4e3d b95b 083d b222 64bd
00000350: 77ba 143d 7194 b3bb 2865 883d 61e7 8b3d
00000360: 6c12 c5bd 2044 85bd 74d5 9a3d 2415 6d3c
00000370: 70fb e63d 4952 fcbc f742 62bc 3b37 dfba
00000380: 8102 51b7 f0f2 d73b f176 173b 668a 4abd
00000390: 96dc b7bc fab5 c0bd 2345 583d 7c9b 153d
000003a0: 013e 6a3a eec5 4abc d19b 063c a455 b5bd
000003b0: c1af fd3c 5f96 523d 99a9 df3d d6aa e6bc
000003c0: 0568 c9bd f631 703d 64a5 e63d 04a9 103d
000003d0: 4b8b 20bd f773 17be 7597 90bb c445 973d
000003e0: 42a6 943d f90e 8dbd 60ae 3abe 268f f1bd
000003f0: 35e2 bcbc a180 1ebd 5c77 8fbd 7705 37bd
-0.05841635 -0.062087655 -0.057473842 0.0027820158 0.0006252277 0.030878432 0.008277902 -0.041406315
-0.020557523 -0.040557023 0.017415626 -0.039371803 -0.01796512 -0.06640818 -0.05365914 0.029069208
-0.01854749 -0.067477696 -0.036557272 -0.07644834 -0.014794848 -0.11278594 -0.039355498 -0.018965183
-0.027193803 0.05760136 0.0148613 -0.019576414 0.005638775 -0.026537657 0.098972045 -0.029469734
-0.008764717 0.004940238 0.050876684 0.092888854 0.0016055551 0.0011237866 0.012895488 0.02155708
0.043265656 -0.0177627 -0.061268017 -0.040758602 0.03175198 0.14481094 0.024008479 -0.08540512
-0.0007815028 0.03196888 0.026542643 0.018577868 0.07013873 0.014590359 -0.011467633 0.013129299
0.08107972 0.041824725 0.061913934 0.07088958 0.019597232 0.06472804 -0.006849043 0.033027604
0.05449868 0.053408295 0.01377635 -0.022291271 -0.012271619 0.038779594 0.037608176 0.12039522
0.009794665 0.009359486 0.08922796 0.015674733 -0.037102003 -0.029651482 0.016834417 0.0035960434
0.049608037 0.025552055 -0.016469557 0.01850688 0.04111567 0.05740413 0.0358543 0.02811214
0.022679534 0.03485725 0.024555137 0.05083525 0.06858126 0.033024248 0.047411505 0.055599045
-0.011675742 -0.03282768 -0.023351831 -0.03786562 -0.12452048 -0.029722054 -0.119331576 -0.048373245
0.024971923 -0.07625856 -0.15712078 -0.0064461865 0.074326426 0.010836007 -0.046126135 -0.04226815
-0.05184331 0.011670062 -0.007465226 0.124646544 0.0045240717 0.07941677 0.12629499 0.03863545
-0.03239243 0.037877783 0.045633696 0.117777385 -0.10260972 -0.024849232 -0.0690123 -0.116036415
-0.19342607 -0.22465439 -0.023386402 0.04664539 -0.0006790552 -0.018564014 -0.15362 -0.08191996
0.047152437 0.080482826 -0.026783958 -0.13366131 -0.03687267 0.091940746 0.098869726 -0.0071165087
0.0024672174 -0.12207755 -0.053521544 0.07476579 0.0648364 0.075330175 -0.06034988 -0.037095886
-0.04315551 0.035895184 0.014676549 -0.092408866 -0.0073829307 0.07608661 0.068325266 0.042187043
-0.14768635 -0.003214046 0.07897482 0.020569962 0.0070790113 -0.02217768 0.025772287 0.059100952
0.03963401 -0.02007684 -0.00034970968 0.12282261 0.06997871 -0.032315742 -0.08086728 -0.12339281
-0.0011712176 0.04666485 0.07987477 0.043012075 -0.033806786 0.015692065 0.029269999 0.032477446
0.027968114 0.09120822 0.010957117 0.04676933 0.045644056 -0.024411011 0.0077238176 -0.05194314
0.010406184 -0.012384516 0.031304408 0.09880679 -0.049908113 -0.040436644 -0.022988612 0.00012284845
-0.0048503685 0.061022688 0.14312698 0.067098804 -0.0031116556 0.047053557 0.05870683 0.0421986
0.086683564 0.050483428 0.0332906 -0.05569715 0.03631064 -0.005480342 0.06659919 0.068312414
-0.09622654 -0.065071344 0.07560244 0.014470372 0.11278427 -0.030800955 -0.013809911 -0.001703001
-1.2457954e-05 0.0065902397 0.0023111666 -0.049448393 -0.02244405 -0.09409709 0.05280031 0.036525235
0.0008935631 -0.012376292 0.00821586 -0.08854225 0.030967595 0.051412936 0.1092102 -0.028157633
-0.09834293 0.058641396 0.112620145 0.035317436 -0.03919534 -0.14790331 -0.0044125863 0.073863536
0.07258274 -0.068876214 -0.18230581 -0.117948815 -0.023057083 -0.03869689 -0.07005188 -0.044682946

fc1.bias f4 [120]
00000000: bddf f73c 2195 87bc a0a8 8ebd 64df 4abe
00000010: d4df 533e 39e5 d53b addc 4e3d 49bd 443d
00000020: 255a 0d3e d339 49bd dbbd 733c 0779 d8bc
00000030: 2fd4 303d 7e5f 04be 6cda 4f3e e9eb 293e
00000040: 6eae 33be b1c2 e1bd c855 f0bc 6bb7 6d3d
00000050: 7273 93bd efcb 803d 271a 0c3e b3dc 44bd
00000060: 1de5 2fbc f60c 41bd fbb4 8e3d 0ede b63d
00000070: 9dd9 43bd 6cb8 893d 9b3c 21bd a2c5 7f3c
00000080: 9c23 9e3d 6555 dd3b 3b31 0b3e 7a98 113c
00000090: 4dd1 843e 18f4 dbbc 0490 96bc e774 743d
000000a0: f533 bf3d 03e9 bf3d 89a1 86bc 261e 993c
000000b0: 2cd5 3b3c cc4a 043d 3cee 87bd c0fc 81bd
000000c0: 8880 20bc 82ab 253c 5546 be3d 0d6f 943d
000000d0: 284e ee3d cd31 023e 0755 7dbc ab11 7dbc
000000e0: d890 263e 10fb 373e 48a9 9e3d 306e 6abd
000000f0: 077f fc3b 8258 15bd 80bf b13d 51e6 f7bc
00000100: e0a8 2ebd d9dc 313e 6794 253c f866 563e
00000110: 5bf5 e13b 8ca0 d5bc c4b0 31bd dd9d 283e
00000120: 7717 1dbd 79a4 cebc 373a bc3d eadd a63d
00000130: 1443 f93d 3b04 8abd 5227 a8bc 24e5 513d
00000140: 353d cd3d b34f c03c 744b 233d 058d 6f3d
00000150: 93f5 84bc de88 803d 9e4b 353d 7496 c33c
00000160: 2d6f a33d c180 bd3d 03f8 ae3c beb0 9cbc
00000170: 7056 f73d 4c1a c4bd fe3e 5b3c cf03 7e3c
00000180: 322b 70bb a78e f0bb d081 b93c 424b 5f3d
00000190: 9371 973d 8d7c 903d d8ad 163e 4821 293b
000001a0: d31d 513d 05fb da3d ccf4 f23d ced9 1ebd
000001b0: 6966 8abd 98a4 8a3d 9a46 bebd d604 c33d
000001c0: 8742 233c 1588 053d 3daf a13c 0fb3 61bd
000001d0: 6df6 5dbd 6030 b1bd 3db9 053d 1db1 253c
0.030258054 -0.016550602 -0.069657564 -0.1981178 0.20690852 0.0065275696 0.05050342 0.04803208
0.13803919 -0.04912741 0.014876808 -0.026424898 0.043171104 -0.12927052 0.20298165 0.16593899
-0.17547008 -0.110234626 -0.029337779 0.05803625 -0.07199754 0.06288897 0.13681851 -0.048062038
-0.010735777 -0.0471315 0.06968113 0.08929072 -0.047814954 0.06724629 -0.03936444 0.015611084
0.07721636 0.0067545646 0.13592999 0.008886451 0.25940934 -0.026849791 -0.018379219 0.0596818
0.09336082 0.09370615 -0.016434448 0.018691134 0.011464398 0.032297894 -0.066372365 -0.06347036
-0.009796269 0.010111691 0.092907585 0.07247744 0.11636001 0.1271431 -0.015462167 -0.015446107
0.16266191 0.17966866 0.077471316 -0.05723399 0.0077055725 -0.03646136 0.08679104 -0.03026119
-0.04264152 0.17369403 0.010106183 0.20937717 0.0068957037 -0.026077531 -0.043381467 0.1646647
-0.038352456 -0.025224911 0.09190791 0.081477955 0.12170997 -0.06739088 -0.020526562 0.051243916
0.1002144 0.023475504 0.03986688 0.058484096 -0.01623038 0.06276105 0.044261567 0.023875453
0.079801895 0.092530735 0.021358496 -0.019127246 0.120770335 -0.09575328 0.013381718 0.015503838
-0.003664684 -0.0073412242 0.022644907 0.05451513 0.073947094 0.07055006 0.14714754 0.002580719
0.051053833 0.106924094 0.118630975 -0.038781933 -0.067578144 0.06769675 -0.0929081 0.09522407
0.009964592 0.03260048 0.01973688 -0.055102404 -0.054190088 -0.08651805 0.03264736 0.010113028

fc2.weight f4 [84, 120]
00000000: a551 c2bd 2439 d43c 7d36 0c3d a7db b3bd
00000010: 9be2 cabc f147 8e3d 36e7 4cbd 8a16 573b
00000020: 8166 ad3c ae51 bf3c 8c18 58bd 5a85 5e3d
00000030: 731a a13d d699 edbd 2706 b73c abdb 803d
00000040: ea92 4e3c d0f0 c7bd 8e90 b13b d19e 783b
00000050: 2bba 62bd cda9 1cbd 6bbb 9f3d b2b7 a63d
00000060: ca41 5a3d 2d49 a2bc 9f07 ba3d 175b 433d
00000070: 3a27 d0bb 7b64 a43d 035b ebbc cdac 79bd
00000080: d05c 3dbd 6783 373d 4a48 9abd 4860 b73c
00000090: 793a 9e3d df57 193d c6f2 5dbd a11e a2bb
000000a0: 0058 213d 196e c5bc 26bf 7b3d 9ddb ee3c
000000b0: 05ab b6bc dd38 113d 0b27 603d b9c9 2dbe
000000c0: 16b6 dbbd f21d 2abd ce94 53bc 85f6 b6bd
000000d0: f51d 5abc df1a 713d a4e8 fd3b d7cd ca3d
000000e0: cdc6 dd3d aa57 73bd a158 c8ba de60 a0bd
000000f0: b9be 5dbd d170 a5bc 9845 6dbd f8fc acbc
00000100: 8785 c5bd eb93 f5bb f8de ce3c 3929 dc3c
00000110: 578e 1bbc 6408 81bd f9db 5ebd 9a63 cdbc
00000120: 6655 4fbd 0d14 003d 8892 41bd 780b ab3c
00000130: df99 d9bc 6107 5fbd 15c4 0cbd 49e1 043e
00000140: f94d 283d 3f52 4dbc 9572 ba3d fda0 32bd
00000150: f292 fe3c 19eb 613d 465b e0bb 69b0 8fbd
00000160: 26c2 07be 1a92 ec3c 9349 21bc fea0 abbc
00000170: 15f1 273e 1d54 76bd b14f c4bd 8ab6 80bd
00000180: 40ed dc3c ba3a c739 86b9 7ebc 1c77 b1bd
00000190: e0ec 8a3d d58b 87bd 0fb6 063e 2bc3 0b3d
000001a0: 71ca ab3d 7318 95bd 38cb cfbd 9a55 42bd
000001b0: 952a a1bc ab4c 033d b0f0 d5bd ab74 523d
000001c0: 61d0 313d b5ef 053d 5c09 75bd c48a 7ebd
000001d0: 8739 0abd 9ee8 36bd b0fa d5bd 6067 3fbd
000001e0: be36 913c 5efb 2a3d c5d3 3a38 a65a a5bd
000001f0: 1262 25be 853f 84bd 1c43 b53b b8d1 a8bc
00000200: e79e 033e c6d5 bb3d f90a 79bd 5c26 d03d
00000210: 0a87 8d3d 6f47 813d 88f6 993d 7a53 d13d
00000220: cfb3 cdbc 7c75 073e da85 52bb 0935 42bd
00000230: dec2 4e3c 0cfa 2a3d ab18 7f3c c0a2 98bc
00000240: 0f19 f73c 4cbd 973d 7508 923d 1495 0ebd
00000250: 01d4 8f3c c086 31bb 3424 e63d 1ef1 0ebd
00000260: b4b9 b7bb 9d6a a53d fd92 1ebd c424 9ebd
00000270: ceeb 85bd c3db 60bd 23a4 883d f9c0 9bbb
00000280: d2a1 5a3c 883c 4bbd 6b4a f13d d135 a2bd
00000290: 3bbe ba3d d856 87bd b01c 063e 117d 2fbc
000002a0: 7689 623d fe9d 67bd 1919 84bd 44e1 23bb
000002b0: 785a 2bbe 69e5 4c3b 76ed c6bd 8973 fbbc
000002c0: f5cb b73d 6036 1cba 9e4a d43c a25c 69bd
000002d0: 597f 9ebd 696f 373d a24d 413b 1805 a3bd
000002e0: 11bc 00be 3e03 be3a 7d2e 343d 3d7f 5fbd
000002f0: 3424 933d 24b7 28be 2f3e 453c f9a0 d7bd
00000300: 0246 e0bd 6fb2 e23d 279b 47bc cbb7 a7bd
00000310: c1c1 cb3d c6a1 a83d e044 e3bd ec68 c4bd
00000320: 8d70 e6bd 0cb6 95bd d9cf b53d 186d 73bd
00000330: 9bcd a93c 9339 063d 2e2f 1a3d 4736 e939
00000340: dd23 7c3d 808e c2bb 49ce 52bd 25ed 98bd
00000350: f8bd 36bd aea4 d13d 39c2 c7bd 2716 993c
00000360: 4bd8 a83d c817 603d 199e 593d 8584 963d
00000370: 3998 8e3d 3686 a93d 063e 82bb a268 d8bc
00000380: c75e 11bd 60e6 a0bd c5b7 52bd ae79 03be
00000390: 013d 563d ad89 e8bd ef79 273c 2e1e 0abe
000003a0: b6ff d53c 5c8f ecbd 330b 033e 0b05 083d
000003b0: 7320 3dbd 8638 563d caa8 6b3d c095 9e3d
000003c0: 2453 71bd 4521 c2bc 7b6c 613d fcfc 1bbc
000003d0: f808 383d 8757 c0bd eda3 913d a0da d13c
000003e0: c8dc ac3d 06ae 0cbd f61c 4c3d f716 113c
000003f0: 6b45 61bd 8d7a 88bd 147b 3dbd d298 8a3b
-0.09488229 0.025906153 0.03423165 -0.0878213 -0.024766257 0.069473155 -0.050025187 0.003281983
0.021167042 0.023354378 -0.052757785 0.054326393 0.07866373 -0.116016075 0.0223418 0.06291898
0.012608269 -0.09762728 0.0054188436 0.0037936459 -0.055353325 -0.038247872 0.07799419 0.08140506
0.053285398 -0.019810284 0.09083485 0.047694292 -0.0063523324 0.08026978 -0.028729921 -0.06095581
-0.04623109 0.04480305 -0.07533319 0.022384778 0.077259965 0.037437316 -0.054186605 -0.004947499
0.039390564 -0.02410035 0.06146159 0.029157454 -0.022298345 0.03545462 0.054724734 -0.16971482
-0.107280895 -0.041532464 -0.012913896 -0.089337386 -0.013312806 0.058863517 0.00774868 0.09902542
0.10828934 -0.059409775 -0.0015285203 -0.07830976 -0.054136965 -0.020195397 -0.057927698 -0.021116719
-0.09644609 -0.00749444 0.025252804 0.026875125 -0.009494386 -0.063004285 -0.054409 -0.025071908
-0.05061855 0.031269122 -0.047258884 0.020879492 -0.02656263 -0.054450396 -0.034366686 0.12976564
0.041089986 -0.012531816 0.09103886 -0.04361056 0.031075928 0.055155847 -0.006846818 -0.070160694
-0.13257656 0.02887826 -0.009844202 -0.02095079 0.16400559 -0.06013881 -0.095855124 -0.062848166
0.026968598 0.00037999992 -0.015547162 -0.086652964 0.067834616 -0.06618468 0.13155387 0.034121674
0.08388222 -0.07280054 -0.10146183 -0.047444917 -0.019673625 0.03205554 -0.10446298 0.051380794
0.043411616 0.032699306 -0.05982338 -0.062144056 -0.03374627 -0.044655435 -0.104482055 -0.046729445
0.017726298 0.04174363 4.454308e-05 -0.080739304 -0.16150692 -0.06457428 0.0055316817 -0.020607814
0.12853585 0.091716334 -0.06080148 0.101635665 0.06910522 0.06312453 0.07517725 0.10221
-0.025110153 0.1322841 -0.0032123239 -0.04741386 0.012619702 0.04174237 0.015569846 -0.018632293
0.030163316 0.074091524 0.07130519 -0.03481014 0.017557146 -0.0027088374 0.11237374 -0.034897916
-0.0056068543 0.080769755 -0.038714398 -0.07721856 -0.06539117 -0.05489708 0.066719316 -0.0047532287
0.013344245 -0.049618274 0.11781772 -0.07920421 0.09118315 -0.06608361 0.13096881 -0.0107109705
0.055306874 -0.056547157 -0.064500995 -0.0025006095 -0.1673373 0.0031264669 -0.09713261 -0.03069474
0.089744486 -0.000595903 0.025914486 -0.056973107 -0.077391334 0.044783983 0.0029495736 -0.07959956
-0.12571742 0.0014496816 0.043989647 -0.054564703 0.071846396 -0.16476113 0.0120387515 -0.1052875
-0.10950853 0.1106919 -0.012182987 -0.081893526 0.09949065 0.08233981 -0.11097121 -0.09590325
-0.11251936 -0.07310113 0.088775344 -0.05943021 0.020727923 0.03276975 0.03764265 0.00044481663
0.06155764 -0.0059373975 -0.05146626 -0.07467107 -0.044614762 0.10236488 -0.09753842 0.01868732
0.082443796 0.05471018 0.05312929 0.07349495 0.06962628 0.08277552 -0.003974679 -0.02641708
-0.035490777 -0.078564405 -0.051444788 -0.12839386 0.05230427 -0.113543846 0.010221942 -0.13488075
0.026122909 -0.11550781 0.12797241 0.033207934 -0.046173524 0.0523 0.057534017 0.07743406
-0.05891718 -0.023697505 0.055035096 -0.009520765 0.04493043 -0.093916945 0.071113445 0.025616944
0.08440548 -0.03434565 0.049832307 0.008855573 -0.054997843 -0.06664 -0.046259955 0.0042296434

fc2.bias f4 [84]
00000000: 1f77 463e 3bc4 ac3d 9169 e83d 5538 9abc
00000010: 860b e2bc fe40 0d3e 19da a53e 3b2b a83d
00000020: b212 503e f984 f1bd 0a2f fe3d c173 cc3d
00000030: eda8 043e dc98 e03d a649 953d 6918 93bd
00000040: 9f0b 9b3c c779 2d3c 08d2 983e 2327 ce3c
00000050: 684f ef3c b5a6 cb3a e689 053e 28a2 70bc
00000060: cc8c 5b3e 37e6 c4bc 6685 7abd ef88 123d
00000070: 0dd3 ca3d 1285 ae3e 5417 c4bd 1dc0 733e
00000080: 0e73 223d ec8d 9e3e 53ee ffbc e0c0 403e
00000090: f428 fa3d 91cd eebc 09e1 123e fab3 bdbc
000000a0: 905e 1f3d 9a7d f23d 6182 4abb 515c a03d
000000b0: 3da7 e1bd 75ef 95bd 778d 413e e3ce 7b3e
000000c0: c029 cfbd a179 55bd f974 debc 55e2 5c3e
000000d0: bf2c 4fbc 0ec0 e13d 2249 d0bd 19e7 273e
000000e0: 41c8 2f3d 623a 8ebd 6b34 b8bc 3c39 33bc
000000f0: a99e 773d 9dce 00be bcf4 7fbb d2fb 0abe
00000100: 62c1 e03d 9a3a c63d 5018 a23e e768 113e
00000110: 47e1 693e 2df8 a03d 1af8 9bbd 912a 2b3e
00000120: f47b 633e 4754 42bd cf61 883d 7b8f da3e
00000130: ba83 a33e 476e f43b 5019 82bd 553c dd3d
00000140: da38 e3bd f882 423e e570 863d e0c1 0a3c
0.19381379 0.084358655 0.1134826 -0.01882569 -0.027593385 0.13794324 0.32392958 0.082113706
0.20319632 -0.11792941 0.12411316 0.09983016 0.12955065 0.109666556 0.07289438 -0.0718239
0.01892644 0.010588116 0.2984774 0.025165146 0.029212669 0.0015537353 0.13040885 -0.014687099
0.21440428 -0.024035556 -0.061162375 0.03577512 0.09903536 0.340859 -0.09574762 0.23803754
0.039660506 0.30967653 -0.031241572 0.18823576 0.122148424 -0.029150756 0.14343657 -0.023157109
0.03890854 0.11840363 -0.0030900466 0.07830108 -0.11018226 -0.073210634 0.18901621 0.2459064
-0.10115385 -0.052117947 -0.027155386 0.21570714 -0.012644946 0.1102296 -0.10170199 0.1639675
0.042915586 -0.069447294 -0.022485932 -0.010938939 0.060454044 -0.12578817 -0.0039055785 -0.13572624
0.10974385 0.09679146 0.31659174 0.14200173 0.22839843 0.07859836 -0.07615681 0.16715457
0.22215253 -0.047443654 0.066592805 0.42687592 0.31936437 0.007459435 -0.06352484 0.10802523
-0.11094828 0.18995273 0.06564502 0.008469075

fc3.weight f4 [10, 84]
00000000: 5164 54be 5391 52bd 4dbe 6abe e46e dd3d
00000010: 4429 b7bd 2e04 87bd be10 913e 2c74 03be
00000020: 3d98 33bb d267 1cbe 1c52 8f3e 8934 cf3d
00000030: 60ef 18be 57b7 cbbb 8c02 a53c 8e1c 803d
00000040: 3f60 76bd 077a 0f3d 9008 45be 19b0 1c3e
00000050: 2adb 89bd 70e0 0d3e 348f d5b6 9282 5abe
00000060: 449a 843d 33c5 6f3d f0fd f13d df09 703d
00000070: be29 923d 57a4 193d 7d93 6f3e 4690 303c
00000080: 62e8 a3bd f2bf 8b3c ebc7 313e 87c9 36be
00000090: f4a8 9bbd 12f2 03bd 6e62 01be 927d 7c3d
000000a0: 2906 b93d 6f0d 373d 722c 603d fb3e abbd
000000b0: 903e 6a3e f045 6e3d 317e ac3d 819e dabc
000000c0: 0596 083e 1051 42bb 2c8d 90bd 413d 19be
000000d0: cd29 d03c 1103 0d3e 594f 2c3e 0c05 5a3e
000000e0: bdf9 debd c700 a33d 4ae2 3b3e 87f4 d03d
000000f0: c02e e63c fba4 f03d 5987 183c 86b5 1f3e
00000100: 3178 183e 2d97 4a3e b550 97be 6dc5 243e
00000110: 509c 683e 76fe 813e d4f8 b53c 5cf1 373d
00000120: 908f 8b3c 4332 0a3c 8424 9abd 0919 a7be
00000130: c850 083d 112b ffba 1da2 80bd 31ae 01be
00000140: 91a5 f93c 5415 e5bd 2e3e 33bd 4f9d 31bd
00000150: d106 1c3e 9578 d9bd 902f 2abe ee2e ac3d
00000160: 79b5 ee3c 26bb d53d c6b6 99bd 968d 2fbe
00000170: a93d d8bd 284d 5d3e d2b3 f03d 61e8 113e
00000180: 6394 d83c 9af5 793d a38c bcbe c3bc babd
00000190: 2a6c 9b3d 0548 54bd 6812 edbd 9ad5 d5bd
000001a0: 4782 eebc 5d34 4ebd 6e21 ac3d d223 823e
000001b0: 3883 9fbd f4b6 813e e3c5 023e 215f f73c
000001c0: 73e4 a9bd f3a1 a1bc 4770 a5bc 8d27 823d
000001d0: 65d5 b83c be43 0dbd 2361 03be c279 f23c
000001e0: 74bf a9bd 764e 8fba b72b 5ebd 8d7f a93d
000001f0: 9425 7b3e 10b4 a53e 1d40 423d bd46 2d3e
00000200: 7a92 eabd 334c 69bd 0856 cb3c 74bc 45bd
00000210: 36f4 ab3e dc39 8dbd e4c4 d3bd 79e0 b1be
00000220: 3c43 5ebe 8a71 603d b345 03be 6d8a 683e
00000230: 08f9 12bd 6893 f0bc e5e8 923e d460 043e
00000240: 9c9e 0a3d 5309 8f3d 7552 00bd a335 bcbd
00000250: e304 ff3d 65a1 193e c7d5 04be 54e3 9fbe
00000260: ccf3 9b3d 70a8 02be 6080 af3a c95c e73d
00000270: 276d 873d afd7 00bd e1b9 ae3d a072 2ebe
00000280: 5e54 d7be 1dc8 f7bd 7c20 093e 1380 a7bd
00000290: 78e1 903e 0288 93bd 6d11 7dbd 60f8 8fbd
000002a0: b00f ebbd 949a c53c db7d 3a3e d0ec 2cbd
000002b0: 0449 883c 9545 903d 07a9 3c3e 5e81 0d3e
000002c0: 9536 0bbe 2cc0 543e 0c6a 2ebe 275d c7bc
000002d0: 3ad8 a7bd 17c1 a6bd e96e 1a3d e461 7bbb
000002e0: 2aec 483d 96d1 99bd 5bf7 153e 6f24 debd
000002f0: 640a 213d 5590 bf3d d143 64bd fb78 d7bd
00000300: 3952 d8bd 7406 acbd cf3c 533d d90a 14bd
00000310: 4f51 6a3d c938 1c3e 6585 6f3e 331f 843d
00000320: 7e52 d7bd 583c e63d be39 283e c936 08bd
00000330: 4b04 55bd fb9d 543d 0a6b b13d 805b fb3c
00000340: 49d4 2abe 6939 0bbe 1b6a d13d 9364 163d
00000350: 50de c5bd 24a1 f7bc 5f26 9fbd f5b1 8bbd
00000360: f099 4f3d 118f 193e 1a60 263e e679 863e
00000370: 7e31 4b3d 3c91 77bd f158 fe3d 6ced d9bd
00000380: a354 91bd 58cc cd3d 8180 88be 9363 2dbd
00000390: b18e 783e 84dd 47bd d3f1 1cbd 1dca 283e
000003a0: 73b2 463e 465e 3cbe b4e3 f73b c3f3 013e
000003b0: dcd6 79bd 7089 273e 4542 c33d e50e 68bd
000003c0: 17fb 41be ca41 5cbd 27cc 133d cb70 01bb
000003d0: 1835 923e 2ab9 163c d4d0 863e f6de ae3d
000003e0: d38a 053d 3ce2 863b 893d 1ebe efac 36bd
000003f0: ff3a 313e 6e88 ee3d 19ad 153e 395e 88bc
-0.20741393 -0.051408123 -0.22924156 0.10812166 -0.08943418 -0.06592594 0.28333086 -0.12837285
-0.0027403974 -0.1527398 0.27992332 0.10117442 -0.14935064 -0.006216924 0.020142816 0.062554464
-0.06015038 0.035028484 -0.19241548 0.15301551 -0.06731255 0.13855147 -6.3645657e-06 -0.21338871
0.06474736 0.058537673 0.11816013 0.058603164 0.07136868 0.037510242 0.23396106 0.010776585
-0.08003308 0.0170593 0.17361419 -0.17850314 -0.076005846 -0.032213278 -0.12635204 0.06164319
0.09034378 0.044690546 0.054729886 -0.08361622 0.22875428 0.058172166 0.084225066 -0.026686909
0.13338478 -0.0029650368 -0.070581764 -0.14964773 0.025410557 0.13770701 0.16827144 0.21290988
-0.108874775 0.07959133 0.18348041 0.1020289 0.028098464 0.117502175 0.009309613 0.1559659
0.148896 0.19784231 -0.29553762 0.16090937 0.22715878 0.2538945 0.022213377 0.044907913
0.01703623 0.008434835 -0.07526496 -0.32636288 0.033280164 -0.0019467791 -0.06280921 -0.12664105
0.030474456 -0.11185709 -0.04376047 -0.04336291 0.15236975 -0.10618702 -0.16619706 0.08407389
0.029139267 0.10436086 -0.075055644 -0.17143854 -0.10558636 0.21611464 0.11753048 0.14248802
0.026437944 0.06102524 -0.36826047 -0.09118035 0.0758899 -0.051826496 -0.11575776 -0.10441132
-0.029114855 -0.050342906 0.08404814 0.25417954 -0.077887 0.25334895 0.127708 0.030196728
-0.08295526 -0.019730544 -0.02019514 0.063552 0.022562692 -0.034488432 -0.12830023 0.029599074
-0.0828847 -0.0010933417 -0.05424091 0.082762815 0.24526054 0.3236394 0.047424424 0.16921516
-0.114537194 -0.056957435 0.024821296 -0.048275426 0.33584756 -0.068958014 -0.10340288 -0.34741572
-0.21705335 0.05479578 -0.12819557 0.22709055 -0.035882026 -0.029367164 0.2869331 0.12927562
0.033842668 0.069842 -0.031328637 -0.09189918 0.12452104 0.15002973 -0.12972175 -0.31228125
0.0761486 -0.12759566 0.0013389699 0.11296994 0.06612616 -0.031455692 0.08531547 -0.17035913
-0.42056555 -0.120987155 0.13391298 -0.08178725 0.2829702 -0.07203676 -0.061784197 -0.07029796
-0.114776015 0.02412156 0.18212073 -0.04221803 0.016636379 0.07044522 0.18423854 0.13818881
-0.1359504 0.20776433 -0.17032641 -0.02433641 -0.08195539 -0.08142298 0.03770343 -0.0038357908
0.04905335 -0.075106785 0.1464514 -0.10846793 0.03931655 0.09353701 -0.055728737 -0.10521122
-0.10562558 -0.08399668 0.051571663 -0.036143158 0.05720645 0.15256037 0.2339073 0.06451263
-0.10513781 0.112419784 0.16428277 -0.033255372 -0.052006047 0.051908474 0.08662994 0.030683279
-0.16682543 -0.13596119 0.10225316 0.03671701 -0.09661543 -0.030228205 -0.077709906 -0.06821052
0.050683916 0.14995982 0.16247597 0.26264876 0.049607746 -0.06044124 0.12419308 -0.10640988
-0.07096221 0.10048741 -0.2666054 -0.04233129 0.24273182 -0.048795238 -0.03831656 0.1648335
0.1940401 -0.18395337 0.007564986 0.12690644 -0.06099592 0.16361022 0.09534124 -0.05665483
-0.1894344 -0.05377368 0.036083367 -0.0019751068 0.28556132 0.00919942 0.26331198 0.0853862
0.032603096 0.0041163247 -0.15453161 -0.044598516 0.17307661 0.11647116 0.14616813 -0.016646491

fc3.bias f4 [10]
00000000: 4290 aebe 15e7 fbbe 0a50 89bd 04b7 d43e
00000010: 40fb 343f dd2c e9bc 05a9 0f3e b44b 3fbe
00000020: 4726 d43e 7f59 6ebe
-0.34094435 -0.4919974 -0.06704719 0.4154588 0.7069588 -0.028463775 0.1402932 -0.18681222
0.41435453 -0.23276328
